Training status loaded

Observations preprocessor loaded
Model loaded

ACModel(
  (image_conv): Sequential(
    (0): Conv2d(3, 16, kernel_size=(2, 2), stride=(1, 1))
    (1): ReLU()
    (2): MaxPool2d(kernel_size=(2, 2), stride=(2, 2), padding=0, dilation=1, ceil_mode=False)
    (3): Conv2d(16, 32, kernel_size=(2, 2), stride=(1, 1))
    (4): ReLU()
    (5): Conv2d(32, 64, kernel_size=(2, 2), stride=(1, 1))
    (6): ReLU()
  )
  (actor): Sequential(
    (0): Linear(in_features=64, out_features=64, bias=True)
    (1): Tanh()
    (2): Linear(in_features=64, out_features=2, bias=True)
  )
  (critic): Sequential(
    (0): Linear(in_features=64, out_features=64, bias=True)
    (1): Tanh()
    (2): Linear(in_features=64, out_features=1, bias=True)
  )
)

Training status loaded

Observations preprocessor loaded
Model loaded

ACModel(
  (image_conv): Sequential(
    (0): Conv2d(3, 16, kernel_size=(2, 2), stride=(1, 1))
    (1): ReLU()
    (2): MaxPool2d(kernel_size=(2, 2), stride=(2, 2), padding=0, dilation=1, ceil_mode=False)
    (3): Conv2d(16, 32, kernel_size=(2, 2), stride=(1, 1))
    (4): ReLU()
    (5): Conv2d(32, 64, kernel_size=(2, 2), stride=(1, 1))
    (6): ReLU()
  )
  (actor): Sequential(
    (0): Linear(in_features=64, out_features=64, bias=True)
    (1): Tanh()
    (2): Linear(in_features=64, out_features=2, bias=True)
  )
  (critic): Sequential(
    (0): Linear(in_features=64, out_features=64, bias=True)
    (1): Tanh()
    (2): Linear(in_features=64, out_features=1, bias=True)
  )
)

Training status loaded

Observations preprocessor loaded
Model loaded

ACModel(
  (image_conv): Sequential(
    (0): Conv2d(3, 16, kernel_size=(2, 2), stride=(1, 1))
    (1): ReLU()
    (2): MaxPool2d(kernel_size=(2, 2), stride=(2, 2), padding=0, dilation=1, ceil_mode=False)
    (3): Conv2d(16, 32, kernel_size=(2, 2), stride=(1, 1))
    (4): ReLU()
    (5): Conv2d(32, 64, kernel_size=(2, 2), stride=(1, 1))
    (6): ReLU()
  )
  (actor): Sequential(
    (0): Linear(in_features=64, out_features=64, bias=True)
    (1): Tanh()
    (2): Linear(in_features=64, out_features=2, bias=True)
  )
  (critic): Sequential(
    (0): Linear(in_features=64, out_features=64, bias=True)
    (1): Tanh()
    (2): Linear(in_features=64, out_features=1, bias=True)
  )
)

Training status loaded

Observations preprocessor loaded
Model loaded

ACModel(
  (image_conv): Sequential(
    (0): Conv2d(3, 16, kernel_size=(2, 2), stride=(1, 1))
    (1): ReLU()
    (2): MaxPool2d(kernel_size=(2, 2), stride=(2, 2), padding=0, dilation=1, ceil_mode=False)
    (3): Conv2d(16, 32, kernel_size=(2, 2), stride=(1, 1))
    (4): ReLU()
    (5): Conv2d(32, 64, kernel_size=(2, 2), stride=(1, 1))
    (6): ReLU()
  )
  (actor): Sequential(
    (0): Linear(in_features=64, out_features=64, bias=True)
    (1): Tanh()
    (2): Linear(in_features=64, out_features=2, bias=True)
  )
  (critic): Sequential(
    (0): Linear(in_features=64, out_features=64, bias=True)
    (1): Tanh()
    (2): Linear(in_features=64, out_features=1, bias=True)
  )
)

Optimizer loaded

U 1 | F 000128 | FPS 0263 | D 0 | rR:μσmM 0.95 0.00 0.95 0.95 | F:μσmM 72.0 0.0 72.0 72.0 | H 0.692 | V 0.134 | pL -0.141 | vL 0.045 | ∇ 0.230
Status saved
U 2 | F 000256 | FPS 0236 | D 1 | rR:μσmM 0.95 0.00 0.95 0.95 | F:μσmM 72.5 6.5 66.0 79.0 | H 0.681 | V 0.264 | pL -0.166 | vL 0.032 | ∇ 0.092
Status saved
U 3 | F 000384 | FPS 0246 | D 1 | rR:μσmM 0.95 0.00 0.95 0.95 | F:μσmM 71.5 7.5 64.0 79.0 | H 0.662 | V 0.486 | pL -0.126 | vL 0.040 | ∇ 0.375
…
Status saved
U 1585 | F 202880 | FPS 0259 | D 807 | rR:μσmM 0.95 0.00 0.95 0.95 | F:μσmM 50.5 2.5 48.0 53.0 | H 0.554 | V 0.742 | pL -0.002 | vL 0.001 | ∇ 0.005
Status saved
U 1586 | F 203008 | FPS 0233 | D 807 | rR:μσmM 0.95 0.00 0.95 0.95 | F:μσmM 52.7 1.9 50.0 54.0 | H 0.559 | V 0.729 | pL 0.005 | vL 0.001 | ∇ 0.006
Status saved
U 1587 | F 203136 | FPS 0230 | D 808 | rR:μσmM 0.95 0.00 0.95 0.95 | F:μσmM 49.5 0.5 49.0 50.0 | H 0.545 | V 0.757 | pL -0.007 | vL 0.001 | ∇ 0.005
Status saved
Training status loaded

Observations preprocessor loaded
Model loaded

ACModel(
  (image_conv): Sequential(
    (0): Conv2d(3, 16, kernel_size=(2, 2), stride=(1, 1))
    (1): ReLU()
    (2): MaxPool2d(kernel_size=(2, 2), stride=(2, 2), padding=0, dilation=1, ceil_mode=False)
    (3): Conv2d(16, 32, kernel_size=(2, 2), stride=(1, 1))
    (4): ReLU()
    (5): Conv2d(32, 64, kernel_size=(2, 2), stride=(1, 1))
    (6): ReLU()
  )
  (actor): Sequential(
    (0): Linear(in_features=64, out_features=64, bias=True)
    (1): Tanh()
    (2): Linear(in_features=64, out_features=2, bias=True)
  )
  (critic): Sequential(
    (0): Linear(in_features=64, out_features=64, bias=True)
    (1): Tanh()
    (2): Linear(in_features=64, out_features=1, bias=True)
  )
)

Optimizer loaded

U 1588 | F 203264 | FPS 0250 | D 0 | rR:μσmM 0.81 0.04 0.77 0.85 | F:μσmM 54.0 4.0 50.0 58.0 | H 0.565 | V 0.693 | pL 0.028 | vL 0.002 | ∇ 0.018
Status saved
U 1589 | F 203392 | FPS 0254 | D 1 | rR:μσmM 0.86 0.02 0.83 0.89 | F:μσmM 49.0 2.4 46.0 52.0 | H 0.541 | V 0.721 | pL -0.008 | vL 0.001 | ∇ 0.007
Status saved
U 1590 | F 203520 | FPS 0265 | D 1 | rR:μσmM 0.83 0.03 0.79 0.86 | F:μσmM 52.5 3.5 49.0 56.0 | H 0.559 | V 0.675 | pL 0.015 | vL 0.002 | ∇ 0.008
Status saved
U 1591 | F 203648 | FPS 0245 | D 2 | rR:μσmM 0.86 0.03 0.82 0.89 | F:μσmM 49.5 3.5 46.0 53.0 | H 0.541 | V 0.696 | pL -0.005 | vL 0.003 | ∇ 0.014
Status saved
Training status loaded

Observations preprocessor loaded
Model loaded

ACModel(
  (image_conv): Sequential(
    (0): Conv2d(3, 16, kernel_size=(2, 2), stride=(1, 1))
    (1): ReLU()
    (2): MaxPool2d(kernel_size=(2, 2), stride=(2, 2), padding=0, dilation=1, ceil_mode=False)
    (3): Conv2d(16, 32, kernel_size=(2, 2), stride=(1, 1))
    (4): ReLU()
    (5): Conv2d(32, 64, kernel_size=(2, 2), stride=(1, 1))
    (6): ReLU()
  )
  (actor): Sequential(
    (0): Linear(in_features=64, out_features=64, bias=True)
    (1): Tanh()
    (2): Linear(in_features=64, out_features=2, bias=True)
  )
  (critic): Sequential(
    (0): Linear(in_features=64, out_features=64, bias=True)
    (1): Tanh()
    (2): Linear(in_features=64, out_features=1, bias=True)
  )
)

Optimizer loaded

U 1592 | F 203776 | FPS 0244 | D 0 | rR:μσmM 0.81 0.03 0.78 0.84 | F:μσmM 54.0 3.0 51.0 57.0 | H 0.509 | V 0.682 | pL 0.003 | vL 0.002 | ∇ 0.018
Status saved
U 1593 | F 203904 | FPS 0237 | D 1 | rR:μσmM 0.87 0.02 0.84 0.90 | F:μσmM 47.7 2.5 45.0 51.0 | H 0.456 | V 0.728 | pL -0.021 | vL 0.002 | ∇ 0.017
Status saved
U 1594 | F 204032 | FPS 0246 | D 1 | rR:μσmM 0.87 0.03 0.83 0.90 | F:μσmM 48.5 3.5 45.0 52.0 | H 0.437 | V 0.715 | pL -0.001 | vL 0.002 | ∇ 0.009
…
